_________________________________________________________________
 Layer (type)                  Output Shape              Param #   
=================================================================
 conv2d (Conv2D)               (None, 28, 28, 32)        320       
                                                                 
 re_lu (ReLU)                  (None, 28, 28, 32)        0         
                                                                 
 max_pooling2d (MaxPooling2D)  (None, 14, 14, 32)        0                                                             
                                                                 
 flatten (Flatten)             (None, 6272)              0         
                                                                 
 dense (Dense)                 (None, 10)                62730     
                                                                 
=================================================================
Total params: 63,050
Trainable params: 63,050
Non-trainable params: 0
_________________________________________________________________
Score:  6.105814129114151 %
Précision:  98.21000099182129 %

